…
 optimizer                  | Adam                
 random_seed                | 0                   
 reg_weight                 | 2.0                 
 save_final_results         | 1                   
 structure                  | stacked             
 test_all                   | 0                   
 topk                       | 3,5,10,20           
===================================================
INFO:root:Device: cuda
INFO:root:Load corpus from ../data/MovieLens_1M/ML_1MTOPK/ContextReader_context101.pkl
INFO:root:#params: 1481729
INFO:root:DCNv2TopK(
  (context_embedding): ModuleDict(
    (i_genre_c): Embedding(298, 64)
    (i_title_c): Embedding(3126, 64)
    (c_day_f): Linear(in_features=1, out_features=64, bias=False)
    (c_hour_c): Embedding(24, 64)
    (c_period_c): Embedding(9, 64)
    (c_weekday_c): Embedding(7, 64)
    (user_id): Embedding(6033, 64)
    (item_id): Embedding(3126, 64)
  )
  (cross_layer_w2): ParameterList(
      (0): Parameter containing: [torch.float32 of size 512x512 (cuda:0)]
      (1): Parameter containing: [torch.float32 of size 512x512 (cuda:0)]
  )
  (bias): ParameterList(
      (0): Parameter containing: [torch.float32 of size 512x1 (cuda:0)]
      (1): Parameter containing: [torch.float32 of size 512x1 (cuda:0)]
  )
  (tanh): Tanh()
  (deep_layers): MLP_Block(
    (mlp): Sequential(
      (0): Linear(in_features=512, out_features=256, bias=True)
      (1): BatchNorm1d(256, eps=1e-05, momentum=0.1, affine=True, track_running_stats=True)
      (2): ReLU()
      (3): Linear(in_features=256, out_features=64, bias=True)
      (4): BatchNorm1d(64, eps=1e-05, momentum=0.1, affine=True, track_running_stats=True)
      (5): ReLU()
    )
  )
  (predict_layer): Linear(in_features=64, out_features=1, bias=True)
)
INFO:root:Test Before Training: (HR@3:0.0327,NDCG@3:0.0242,HR@5:0.0515,NDCG@5:0.0319,HR@10:0.1082,NDCG@10:0.0500,HR@20:0.2133,NDCG@20:0.0765)
INFO:root:Optimizer: Adam
INFO:root:Epoch 1     loss=806.9062 [18.0 s]	dev=(HR@3:0.2404,NDCG@3:0.1839) [0.2 s] *
INFO:root:Epoch 2     loss=6.5564 [17.3 s]	dev=(HR@3:0.2514,NDCG@3:0.1914) [0.2 s] *
INFO:root:Epoch 3     loss=0.3835 [18.5 s]	dev=(HR@3:0.2568,NDCG@3:0.1975) [0.2 s] *
…
