…
 num_workers                | 0                   
 optimizer                  | Adam                
 random_seed                | 0                   
 reg_weight                 | 1.0                 
 save_final_results         | 1                   
 test_all                   | 0                   
 topk                       | 3,5,10,20           
===================================================
INFO:root:Device: cuda
INFO:root:Load corpus from ../data/MovieLens_1M/ML_1MTOPK/ContextReader_context101.pkl
INFO:root:#params: 1609839
INFO:root:xDeepFMTopK(
  (context_embedding): ModuleDict(
    (i_genre_c): Embedding(298, 64)
    (i_title_c): Embedding(3126, 64)
    (c_day_f): Linear(in_features=1, out_features=64, bias=False)
    (c_hour_c): Embedding(24, 64)
    (c_period_c): Embedding(9, 64)
    (c_weekday_c): Embedding(7, 64)
    (user_id): Embedding(6033, 64)
    (item_id): Embedding(3126, 64)
  )
  (linear_embedding): ModuleDict(
    (i_genre_c): Embedding(298, 1)
    (i_title_c): Embedding(3126, 1)
    (c_day_f): Linear(in_features=1, out_features=1, bias=False)
    (c_hour_c): Embedding(24, 1)
    (c_period_c): Embedding(9, 1)
    (c_weekday_c): Embedding(7, 1)
    (user_id): Embedding(6033, 1)
    (item_id): Embedding(3126, 1)
  )
  (conv1d_list): ModuleList(
    (0): Conv1d(64, 8, kernel_size=(1,), stride=(1,))
    (1): Conv1d(32, 8, kernel_size=(1,), stride=(1,))
  )
  (cin_linear): Linear(in_features=12, out_features=1, bias=True)
  (deep_layers): MLP_Block(
    (mlp): Sequential(
      (0): Linear(in_features=512, out_features=512, bias=True)
      (1): ReLU()
      (2): Dropout(p=0.8, inplace=False)
      (3): Linear(in_features=512, out_features=512, bias=True)
      (4): ReLU()
      (5): Dropout(p=0.8, inplace=False)
      (6): Linear(in_features=512, out_features=512, bias=True)
      (7): ReLU()
      (8): Dropout(p=0.8, inplace=False)
      (9): Linear(in_features=512, out_features=1, bias=True)
    )
  )
)
INFO:root:Test Before Training: (HR@3:0.0261,NDCG@3:0.0184,HR@5:0.0480,NDCG@5:0.0272,HR@10:0.1093,NDCG@10:0.0467,HR@20:0.2182,NDCG@20:0.0739)
INFO:root:Optimizer: Adam
INFO:root:Epoch 1     loss=0.7471 [28.6 s]	dev=(HR@3:0.1674,NDCG@3:0.1273) [1.0 s] *
INFO:root:Epoch 2     loss=0.3784 [25.3 s]	dev=(HR@3:0.1916,NDCG@3:0.1437) [0.9 s] *
…
