…
 num_neg                    | 1                   
 num_workers                | 0                   
 optimizer                  | Adam                
 random_seed                | 0                   
 save_final_results         | 1                   
 test_all                   | 0                   
 topk                       | 3,5,10,20           
===================================================
INFO:root:Device: cuda
INFO:root:Load corpus from ../data/MovieLens_1M/ML_1MTOPK/ContextReader_context101.pkl
INFO:root:#params: 861778
INFO:root:WideDeepTopK(
  (context_embedding): ModuleDict(
    (i_genre_c): Embedding(298, 64)
    (i_title_c): Embedding(3126, 64)
    (c_day_f): Linear(in_features=1, out_features=64, bias=False)
    (c_hour_c): Embedding(24, 64)
    (c_period_c): Embedding(9, 64)
    (c_weekday_c): Embedding(7, 64)
    (user_id): Embedding(6033, 64)
    (item_id): Embedding(3126, 64)
  )
  (linear_embedding): ModuleDict(
    (i_genre_c): Embedding(298, 1)
    (i_title_c): Embedding(3126, 1)
    (c_day_f): Linear(in_features=1, out_features=1, bias=False)
    (c_hour_c): Embedding(24, 1)
    (c_period_c): Embedding(9, 1)
    (c_weekday_c): Embedding(7, 1)
    (user_id): Embedding(6033, 1)
    (item_id): Embedding(3126, 1)
  )
  (deep_layers): MLP_Block(
    (mlp): Sequential(
      (0): Linear(in_features=512, out_features=64, bias=True)
      (1): ReLU()
      (2): Dropout(p=0.5, inplace=False)
      (3): Linear(in_features=64, out_features=64, bias=True)
      (4): ReLU()
      (5): Dropout(p=0.5, inplace=False)
      (6): Linear(in_features=64, out_features=64, bias=True)
      (7): ReLU()
      (8): Dropout(p=0.5, inplace=False)
      (9): Linear(in_features=64, out_features=1, bias=True)
    )
  )
)
INFO:root:Test Before Training: (HR@3:0.0275,NDCG@3:0.0199,HR@5:0.0480,NDCG@5:0.0283,HR@10:0.0971,NDCG@10:0.0437,HR@20:0.2053,NDCG@20:0.0708)
INFO:root:Optimizer: Adam
INFO:root:Epoch 1     loss=0.3795 [25.1 s]	dev=(HR@3:0.2440,NDCG@3:0.1889) [0.2 s] *
INFO:root:Epoch 2     loss=0.3493 [23.9 s]	dev=(HR@3:0.2514,NDCG@3:0.1892) [0.1 s] *
…
