…
 num_workers                | 0                   
 optimizer                  | Adam                
 random_seed                | 0                   
 reg_weight                 | 0.5                 
 save_final_results         | 1                   
 test_all                   | 0                   
 topk                       | 3,5,10,20           
===================================================
INFO:root:Device: cuda
INFO:root:Load corpus from ../data/MovieLens_1M/ML_1MTOPK/ContextReader_context101.pkl
INFO:root:#params: 852097
INFO:root:DCNTopK(
  (context_embedding): ModuleDict(
    (i_genre_c): Embedding(298, 64)
    (i_title_c): Embedding(3126, 64)
    (c_day_f): Linear(in_features=1, out_features=64, bias=False)
    (c_hour_c): Embedding(24, 64)
    (c_period_c): Embedding(9, 64)
    (c_weekday_c): Embedding(7, 64)
    (user_id): Embedding(6033, 64)
    (item_id): Embedding(3126, 64)
  )
  (cross_layer_w): ParameterList(
      (0): Parameter containing: [torch.float32 of size 512 (cuda:0)]
      (1): Parameter containing: [torch.float32 of size 512 (cuda:0)]
  )
  (cross_layer_b): ParameterList(
      (0): Parameter containing: [torch.float32 of size 512 (cuda:0)]
      (1): Parameter containing: [torch.float32 of size 512 (cuda:0)]
  )
  (deep_layers): MLP_Block(
    (mlp): Sequential(
      (0): Linear(in_features=512, out_features=64, bias=True)
      (1): BatchNorm1d(64, eps=1e-05, momentum=0.1, affine=True, track_running_stats=True)
      (2): ReLU()
      (3): Linear(in_features=64, out_features=64, bias=True)
      (4): BatchNorm1d(64, eps=1e-05, momentum=0.1, affine=True, track_running_stats=True)
      (5): ReLU()
      (6): Linear(in_features=64, out_features=64, bias=True)
      (7): BatchNorm1d(64, eps=1e-05, momentum=0.1, affine=True, track_running_stats=True)
      (8): ReLU()
    )
  )
  (predict_layer): Linear(in_features=576, out_features=1, bias=True)
)
INFO:root:Test Before Training: (HR@3:0.0338,NDCG@3:0.0241,HR@5:0.0581,NDCG@5:0.0341,HR@10:0.1002,NDCG@10:0.0476,HR@20:0.2074,NDCG@20:0.0743)
INFO:root:Optimizer: Adam
INFO:root:Epoch 1     loss=14.3147 [19.9 s]	dev=(HR@3:0.2486,NDCG@3:0.1908) [0.1 s] *
INFO:root:Epoch 2     loss=3.5721 [23.3 s]	dev=(HR@3:0.2537,NDCG@3:0.1935) [0.2 s] *
INFO:root:Epoch 3     loss=0.4265 [23.9 s]	dev=(HR@3:0.2412,NDCG@3:0.1848) [0.1 s]
…
