…
 optimizer                  | Adam                
 random_seed                | 0                   
 save_final_results         | 1                   
 test_all                   | 0                   
 topk                       | 3,5,10,20           
 use_residual               | 1                   
===================================================
INFO:root:Device: cuda
INFO:root:Load corpus from ../data/MovieLens_1M/ML_1MTOPK/ContextReader_context101.pkl
INFO:root:#params: 820289
INFO:root:SAMTopK(
  (block): SAMBlock(
    (layers): ModuleList(
      (0): SAM3A(
        (K): Linear(in_features=64, out_features=64, bias=False)
        (Q): Linear(in_features=64, out_features=64, bias=False)
        (dropout): Dropout(p=0.2, inplace=False)
      )
    )
  )
  (embedding_dict): ModuleDict(
    (i_genre_c): Embedding(298, 64)
    (i_title_c): Embedding(3126, 64)
    (c_day_f): Linear(in_features=1, out_features=64, bias=False)
    (c_hour_c): Embedding(24, 64)
    (c_period_c): Embedding(9, 64)
    (c_weekday_c): Embedding(7, 64)
    (user_id): Embedding(6033, 64)
    (item_id): Embedding(3126, 64)
  )
  (output_layer): Linear(in_features=64, out_features=1, bias=True)
)
INFO:root:Test Before Training: (HR@3:0.0407,NDCG@3:0.0293,HR@5:0.0651,NDCG@5:0.0392,HR@10:0.1103,NDCG@10:0.0534,HR@20:0.2258,NDCG@20:0.0825)
INFO:root:Optimizer: Adam
INFO:root:Epoch 1     loss=0.4039 [15.2 s]	dev=(HR@3:0.2350,NDCG@3:0.1811) [0.1 s] *
INFO:root:Epoch 2     loss=0.3443 [15.7 s]	dev=(HR@3:0.2479,NDCG@3:0.1889) [0.2 s] *
INFO:root:Epoch 3     loss=0.3416 [16.7 s]	dev=(HR@3:0.2459,NDCG@3:0.1866) [0.1 s]
…
