…
INFO:root:"# user": 6032, "# item": 3125, "# entry": 574197
INFO:root:Collect context features...
INFO:root:Loading context for train set...
INFO:root:#Situation Feautures: 4
INFO:root:Loading context for dev set...
INFO:root:#Situation Feautures: 4
INFO:root:Loading context for test set...
INFO:root:#Situation Feautures: 4
INFO:root:# Item Features: 3
INFO:root:Appending history info with history context...
INFO:root:Save corpus to ../data/MovieLens_1M/ML_1MTOPK/ContextSeqReader_context101.pkl
INFO:root:#params: 989634
INFO:root:DINTopK(
  (embedding_dict): ModuleDict(
    (user_id): Embedding(6033, 64)
    (item_id): Embedding(3126, 64)
    (i_genre_c): Embedding(298, 64)
    (i_title_c): Embedding(3126, 64)
    (c_day_f): Linear(in_features=1, out_features=64, bias=False)
    (c_hour_c): Embedding(24, 64)
    (c_period_c): Embedding(9, 64)
    (c_weekday_c): Embedding(7, 64)
  )
  (att_mlp_layers): MLP_Block(
    (mlp): Sequential(
      (0): Linear(in_features=768, out_features=64, bias=True)
      (1): Sigmoid()
      (2): Dropout(p=0.5, inplace=False)
      (3): Linear(in_features=64, out_features=64, bias=True)
      (4): Sigmoid()
      (5): Dropout(p=0.5, inplace=False)
      (6): Linear(in_features=64, out_features=64, bias=True)
      (7): Sigmoid()
      (8): Dropout(p=0.5, inplace=False)
      (9): Linear(in_features=64, out_features=1, bias=True)
    )
  )
  (dnn_mlp_layers): MLP_Block(
    (mlp): Sequential(
      (0): Linear(in_features=896, out_features=128, bias=True)
      (1): BatchNorm1d(128, eps=1e-05, momentum=0.1, affine=True, track_running_stats=True)
      (2): Dice(
        (bn): BatchNorm1d(128, eps=1e-08, momentum=0.1, affine=True, track_running_stats=True)
        (sigmoid): Sigmoid()
      )
      (3): Dropout(p=0.5, inplace=False)
      (4): Linear(in_features=128, out_features=64, bias=True)
      (5): BatchNorm1d(64, eps=1e-05, momentum=0.1, affine=True, track_running_stats=True)
      (6): Dice(
        (bn): BatchNorm1d(64, eps=1e-08, momentum=0.1, affine=True, track_running_stats=True)
        (sigmoid): Sigmoid()
      )
      (7): Dropout(p=0.5, inplace=False)
      (8): Linear(in_features=64, out_features=1, bias=True)
    )
  )
)
INFO:root:Test Before Training: (HR@3:0.0170,NDCG@3:0.0119,HR@5:0.0320,NDCG@5:0.0180,HR@10:0.0804,NDCG@10:0.0333,HR@20:0.1889,NDCG@20:0.0606)
INFO:root:Optimizer: Adam
INFO:root:Epoch 1     loss=0.2795 [47.5 s]	dev=(HR@3:0.3345,NDCG@3:0.2594) [0.6 s] *
INFO:root:Epoch 2     loss=0.1771 [47.4 s]	dev=(HR@3:0.3673,NDCG@3:0.2853) [0.7 s] *
…
