…
 num_neg                    | 1                   
 num_workers                | 0                   
 optimizer                  | Adam                
 random_seed                | 0                   
 save_final_results         | 1                   
 test_all                   | 0                   
 topk                       | 3,5,10,20           
===================================================
INFO:root:Device: cuda
INFO:root:Load corpus from ../data/MovieLens_1M/ML_1MTOPK/ContextReader_context101.pkl
INFO:root:#params: 985042
INFO:root:AutoIntTopK(
  (context_embedding): ModuleDict(
    (i_genre_c): Embedding(298, 64)
    (i_title_c): Embedding(3126, 64)
    (c_day_f): Linear(in_features=1, out_features=64, bias=False)
    (c_hour_c): Embedding(24, 64)
    (c_period_c): Embedding(9, 64)
    (c_weekday_c): Embedding(7, 64)
    (user_id): Embedding(6033, 64)
    (item_id): Embedding(3126, 64)
  )
  (linear_embedding): ModuleDict(
    (i_genre_c): Embedding(298, 1)
    (i_title_c): Embedding(3126, 1)
    (c_day_f): Linear(in_features=1, out_features=1, bias=False)
    (c_hour_c): Embedding(24, 1)
    (c_period_c): Embedding(9, 1)
    (c_weekday_c): Embedding(7, 1)
    (user_id): Embedding(6033, 1)
    (item_id): Embedding(3126, 1)
  )
  (autoint_attentions): ModuleList(
    (0-1): 2 x MultiHeadAttention(
      (q_linear): Linear(in_features=64, out_features=64, bias=False)
      (k_linear): Linear(in_features=64, out_features=64, bias=False)
      (v_linear): Linear(in_features=64, out_features=64, bias=False)
    )
  )
  (residual_embeddings): ModuleList(
    (0-1): 2 x Linear(in_features=64, out_features=64, bias=True)
  )
  (deep_layers): MLP_Block(
    (mlp): Sequential(
      (0): Linear(in_features=512, out_features=256, bias=True)
      (1): ReLU()
      (2): Linear(in_features=256, out_features=1, bias=True)
    )
  )
)
INFO:root:Test Before Training: (HR@3:0.0306,NDCG@3:0.0213,HR@5:0.0435,NDCG@5:0.0266,HR@10:0.0912,NDCG@10:0.0416,HR@20:0.1907,NDCG@20:0.0665)
INFO:root:Optimizer: Adam
INFO:root:Epoch 1     loss=0.3578 [26.1 s]	dev=(HR@3:0.2404,NDCG@3:0.1868) [0.3 s] *
INFO:root:Epoch 2     loss=0.3394 [24.2 s]	dev=(HR@3:0.2428,NDCG@3:0.1840) [0.3 s]
INFO:root:Epoch 3     loss=0.3341 [23.7 s]	dev=(HR@3:0.2510,NDCG@3:0.1918) [0.3 s] *
…
