…
 num_workers                | 0                   
 optimizer                  | Adam                
 random_seed                | 0                   
 reg_weight                 | 2.0                 
 save_final_results         | 1                   
 test_all                   | 0                   
 topk                       | 3,5,10,20           
===================================================
INFO:root:Device: cuda
INFO:root:Load corpus from ../data/MovieLens_1M/ML_1MTOPK/ContextReader_context101.pkl
INFO:root:#params: 824785
INFO:root:AFMTopK(
  (context_embedding): ModuleDict(
    (i_genre_c): Embedding(298, 64)
    (i_title_c): Embedding(3126, 64)
    (c_day_f): Linear(in_features=1, out_features=64, bias=False)
    (c_hour_c): Embedding(24, 64)
    (c_period_c): Embedding(9, 64)
    (c_weekday_c): Embedding(7, 64)
    (user_id): Embedding(6033, 64)
    (item_id): Embedding(3126, 64)
  )
  (linear_embedding): ModuleDict(
    (i_genre_c): Embedding(298, 1)
    (i_title_c): Embedding(3126, 1)
    (c_day_f): Linear(in_features=1, out_features=1, bias=False)
    (c_hour_c): Embedding(24, 1)
    (c_period_c): Embedding(9, 1)
    (c_weekday_c): Embedding(7, 1)
    (user_id): Embedding(6033, 1)
    (item_id): Embedding(3126, 1)
  )
  (dropout_layer): Dropout(p=0.5, inplace=False)
  (attlayer): AttLayer(
    (w): Linear(in_features=64, out_features=64, bias=False)
  )
)
INFO:root:Test Before Training: (HR@3:0.0209,NDCG@3:0.0133,HR@5:0.0355,NDCG@5:0.0194,HR@10:0.0752,NDCG@10:0.0318,HR@20:0.1914,NDCG@20:0.0608)
INFO:root:Optimizer: Adam
INFO:root:Epoch 1     loss=0.4973 [19.9 s]	dev=(HR@3:0.2428,NDCG@3:0.1845) [0.2 s] *
INFO:root:Epoch 2     loss=0.4230 [18.7 s]	dev=(HR@3:0.2385,NDCG@3:0.1821) [0.2 s]
INFO:root:Epoch 3     loss=0.4208 [19.1 s]	dev=(HR@3:0.2412,NDCG@3:0.1854) [0.2 s] *
…
