…
 num_neg                    | 1                   
 num_workers                | 0                   
 optimizer                  | Adam                
 random_seed                | 0                   
 save_final_results         | 1                   
 test_all                   | 0                   
 topk                       | 3,5,10,20           
===================================================
INFO:root:Device: cuda
INFO:root:Load corpus from ../data/MovieLens_1M/ML_1MTOPK/ContextReader_context101.pkl
INFO:root:#params: 1149010
INFO:root:DeepFMTopK(
  (context_embedding): ModuleDict(
    (i_genre_c): Embedding(298, 64)
    (i_title_c): Embedding(3126, 64)
    (c_day_f): Linear(in_features=1, out_features=64, bias=False)
    (c_hour_c): Embedding(24, 64)
    (c_period_c): Embedding(9, 64)
    (c_weekday_c): Embedding(7, 64)
    (user_id): Embedding(6033, 64)
    (item_id): Embedding(3126, 64)
  )
  (linear_embedding): ModuleDict(
    (i_genre_c): Embedding(298, 1)
    (i_title_c): Embedding(3126, 1)
    (c_day_f): Linear(in_features=1, out_features=1, bias=False)
    (c_hour_c): Embedding(24, 1)
    (c_period_c): Embedding(9, 1)
    (c_weekday_c): Embedding(7, 1)
    (user_id): Embedding(6033, 1)
    (item_id): Embedding(3126, 1)
  )
  (deep_layers): MLP_Block(
    (mlp): Sequential(
      (0): Linear(in_features=512, out_features=512, bias=True)
      (1): ReLU()
      (2): Dropout(p=0.5, inplace=False)
      (3): Linear(in_features=512, out_features=128, bias=True)
      (4): ReLU()
      (5): Dropout(p=0.5, inplace=False)
      (6): Linear(in_features=128, out_features=1, bias=True)
    )
  )
)
INFO:root:Test Before Training: (HR@3:0.0209,NDCG@3:0.0143,HR@5:0.0372,NDCG@5:0.0210,HR@10:0.0846,NDCG@10:0.0363,HR@20:0.1865,NDCG@20:0.0614)
INFO:root:Optimizer: Adam
INFO:root:Epoch 1     loss=0.3639 [21.3 s]	dev=(HR@3:0.2432,NDCG@3:0.1870) [0.1 s] *
INFO:root:Epoch 2     loss=0.3402 [20.7 s]	dev=(HR@3:0.2276,NDCG@3:0.1719) [0.1 s]
INFO:root:Epoch 3     loss=0.3367 [18.7 s]	dev=(HR@3:0.2049,NDCG@3:0.1559) [0.1 s]
…
