…
 num_workers                | 0                   
 optimizer                  | Adam                
 orders                     | 2                   
 random_seed                | 0                   
 save_final_results         | 1                   
 test_all                   | 0                   
 topk                       | 3,5,10,20           
===================================================
INFO:root:Device: cuda
INFO:root:Load corpus from ../data/MovieLens_1M/ML_1MTOPK/ContextSeqReader_context101.pkl
INFO:root:#params: 4592194
INFO:root:CANTopK(
  (embedding_dict): ModuleDict(
    (user_id): Embedding(6033, 64)
    (item_id): Embedding(3126, 64)
    (i_genre_c): Embedding(298, 64)
    (i_title_c): Embedding(3126, 64)
    (c_day_f): Linear(in_features=1, out_features=64, bias=False)
    (c_hour_c): Embedding(24, 64)
    (c_period_c): Embedding(9, 64)
    (c_weekday_c): Embedding(7, 64)
  )
  (gru): GRU(192, 192, batch_first=True)
  (evolving_gru): GRU(192, 192, batch_first=True)
  (fcn_net): MLP_Block(
    (mlp): Sequential(
      (0): Linear(in_features=1136, out_features=64, bias=True)
      (1): ReLU()
      (2): Dropout(p=0.2, inplace=False)
      (3): Linear(in_features=64, out_features=64, bias=True)
      (4): ReLU()
      (5): Dropout(p=0.2, inplace=False)
      (6): Linear(in_features=64, out_features=1, bias=True)
    )
  )
  (aux_net): MLP_Block(
    (mlp): Sequential(
      (0): Linear(in_features=384, out_features=64, bias=True)
      (1): ReLU()
      (2): Dropout(p=0.2, inplace=False)
      (3): Linear(in_features=64, out_features=1, bias=True)
      (4): Sigmoid()
    )
  )
  (aux_fn): BCELoss()
  (item_embedding_induce): Embedding(3126, 1024)
  (activation): Tanh()
)
INFO:root:Test Before Training: (HR@3:0.0327,NDCG@3:0.0233,HR@5:0.0511,NDCG@5:0.0308,HR@10:0.1058,NDCG@10:0.0483,HR@20:0.2074,NDCG@20:0.0737)
INFO:root:Optimizer: Adam
INFO:root:Epoch 1     loss=0.3916 [96.3 s]	dev=(HR@3:0.2799,NDCG@3:0.2122) [1.4 s] *
INFO:root:Epoch 2     loss=0.3051 [92.4 s]	dev=(HR@3:0.2830,NDCG@3:0.2175) [1.3 s] *
INFO:root:Epoch 3     loss=0.2708 [93.9 s]	dev=(HR@3:0.3123,NDCG@3:0.2398) [1.4 s] *
…
