…
 num_workers                | 0                   
 optimizer                  | Adam                
 random_seed                | 0                   
 save_final_results         | 1                   
 test_all                   | 0                   
 topk                       | 3,5,10,20           
 use_fs                     | 1                   
===================================================
INFO:root:Device: cuda
INFO:root:Load corpus from ../data/MovieLens_1M/ML_1MTOPK/ContextReader_context101.pkl
INFO:root:#params: 1199234
INFO:root:FinalMLPTopK(
  (embedding_dict): ModuleDict(
    (i_genre_c): Embedding(298, 64)
    (i_title_c): Embedding(3126, 64)
    (c_day_f): Linear(in_features=1, out_features=64, bias=False)
    (c_hour_c): Embedding(24, 64)
    (c_period_c): Embedding(9, 64)
    (c_weekday_c): Embedding(7, 64)
    (user_id): Embedding(6033, 64)
    (item_id): Embedding(3126, 64)
  )
  (mlp1): MLP_Block(
    (mlp): Sequential(
      (0): Linear(in_features=512, out_features=64, bias=True)
      (1): ReLU()
      (2): Dropout(p=0.5, inplace=False)
    )
  )
  (mlp2): MLP_Block(
    (mlp): Sequential(
      (0): Linear(in_features=512, out_features=64, bias=True)
      (1): ReLU()
      (2): Dropout(p=0.2, inplace=False)
      (3): Linear(in_features=64, out_features=64, bias=True)
      (4): ReLU()
      (5): Dropout(p=0.2, inplace=False)
      (6): Linear(in_features=64, out_features=64, bias=True)
      (7): ReLU()
      (8): Dropout(p=0.2, inplace=False)
    )
  )
  (fs_module): FeatureSelection(
    (fs1_ctx_emb): ModuleList(
      (0): Embedding(24, 64)
      (1): Embedding(7, 64)
      (2): Embedding(9, 64)
      (3): Linear(in_features=1, out_features=64, bias=True)
    )
    (fs2_ctx_emb): ModuleList(
      (0): Embedding(298, 64)
      (1): Embedding(3126, 64)
    )
    (fs1_gate): MLP_Block(
      (mlp): Sequential(
        (0): Linear(in_features=256, out_features=64, bias=True)
        (1): ReLU()
        (2): Linear(in_features=64, out_features=512, bias=True)
        (3): Sigmoid()
      )
    )
    (fs2_gate): MLP_Block(
      (mlp): Sequential(
        (0): Linear(in_features=128, out_features=64, bias=True)
        (1): ReLU()
        (2): Linear(in_features=64, out_features=512, bias=True)
        (3): Sigmoid()
      )
    )
  )
  (fusion_module): InteractionAggregation(
    (w_x): Linear(in_features=64, out_features=1, bias=True)
    (w_y): Linear(in_features=64, out_features=1, bias=True)
  )
)
INFO:root:Test Before Training: (HR@3:0.0285,NDCG@3:0.0200,HR@5:0.0494,NDCG@5:0.0285,HR@10:0.1058,NDCG@10:0.0465,HR@20:0.2143,NDCG@20:0.0736)
INFO:root:Optimizer: Adam
INFO:root:Epoch 1     loss=0.3628 [21.4 s]	dev=(HR@3:0.2443,NDCG@3:0.1874) [0.1 s] *
INFO:root:Epoch 2     loss=0.3421 [23.2 s]	dev=(HR@3:0.2451,NDCG@3:0.1868) [0.1 s]
INFO:root:Epoch 3     loss=0.3388 [22.9 s]	dev=(HR@3:0.2475,NDCG@3:0.1919) [0.2 s] *
…
