…
 num_neg                    | 1                   
 num_workers                | 0                   
 optimizer                  | Adam                
 random_seed                | 0                   
 save_final_results         | 1                   
 test_all                   | 0                   
 topk                       | 3,5,10,20           
===================================================
INFO:root:Device: cuda
INFO:root:Load corpus from ../data/MovieLens_1M/ML_1MTOPK/ContextSeqReader_context101.pkl
INFO:root:#params: 1383938
INFO:root:DIENTopK(
  (embedding_dict): ModuleDict(
    (user_id): Embedding(6033, 64)
    (item_id): Embedding(3126, 64)
    (i_genre_c): Embedding(298, 64)
    (i_title_c): Embedding(3126, 64)
    (c_day_f): Linear(in_features=1, out_features=64, bias=False)
    (c_hour_c): Embedding(24, 64)
    (c_period_c): Embedding(9, 64)
    (c_weekday_c): Embedding(7, 64)
  )
  (gru): GRU(192, 192, batch_first=True)
  (evolving_gru): GRU(192, 192, batch_first=True)
  (fcn_net): MLP_Block(
    (mlp): Sequential(
      (0): Linear(in_features=1088, out_features=64, bias=True)
      (1): ReLU()
      (2): Linear(in_features=64, out_features=1, bias=True)
    )
  )
  (aux_net): MLP_Block(
    (mlp): Sequential(
      (0): Linear(in_features=384, out_features=64, bias=True)
      (1): ReLU()
      (2): Linear(in_features=64, out_features=1, bias=True)
      (3): Sigmoid()
    )
  )
  (aux_fn): BCELoss()
)
INFO:root:Test Before Training: (HR@3:0.0292,NDCG@3:0.0196,HR@5:0.0494,NDCG@5:0.0278,HR@10:0.0999,NDCG@10:0.0441,HR@20:0.2032,NDCG@20:0.0699)
INFO:root:Optimizer: Adam
INFO:root:Epoch 1     loss=0.3476 [96.6 s]	dev=(HR@3:0.3107,NDCG@3:0.2411) [2.0 s] *
INFO:root:Epoch 2     loss=0.2105 [98.0 s]	dev=(HR@3:0.3384,NDCG@3:0.2631) [2.0 s] *
…
