…
INFO:root:Reading data from "../data/", dataset = "MovieLens_1M/ML_1MTOPK/" 
INFO:root:Counting dataset statistics...
INFO:root:"# user": 6032, "# item": 3125, "# entry": 574197
INFO:root:Collect context features...
INFO:root:Loading context for train set...
INFO:root:#Situation Feautures: 4
INFO:root:Loading context for dev set...
INFO:root:#Situation Feautures: 4
INFO:root:Loading context for test set...
INFO:root:#Situation Feautures: 4
INFO:root:# Item Features: 3
INFO:root:Save corpus to ../data/MovieLens_1M/ML_1MTOPK/ContextReader_context101.pkl
INFO:root:#params: 820561
INFO:root:FMTopK(
  (context_embedding): ModuleDict(
    (i_genre_c): Embedding(298, 64)
    (i_title_c): Embedding(3126, 64)
    (c_day_f): Linear(in_features=1, out_features=64, bias=False)
    (c_hour_c): Embedding(24, 64)
    (c_period_c): Embedding(9, 64)
    (c_weekday_c): Embedding(7, 64)
    (user_id): Embedding(6033, 64)
    (item_id): Embedding(3126, 64)
  )
  (linear_embedding): ModuleDict(
    (i_genre_c): Embedding(298, 1)
    (i_title_c): Embedding(3126, 1)
    (c_day_f): Linear(in_features=1, out_features=1, bias=False)
    (c_hour_c): Embedding(24, 1)
    (c_period_c): Embedding(9, 1)
    (c_weekday_c): Embedding(7, 1)
    (user_id): Embedding(6033, 1)
    (item_id): Embedding(3126, 1)
  )
)
INFO:root:Test Before Training: (HR@3:0.0251,NDCG@3:0.0163,HR@5:0.0445,NDCG@5:0.0243,HR@10:0.0967,NDCG@10:0.0410,HR@20:0.2063,NDCG@20:0.0684)
INFO:root:Optimizer: Adam
INFO:root:Epoch 1     loss=0.3747 [20.3 s]	dev=(HR@3:0.1534,NDCG@3:0.1144) [0.1 s] *
INFO:root:Epoch 2     loss=0.3478 [16.9 s]	dev=(HR@3:0.2201,NDCG@3:0.1705) [0.1 s] *
INFO:root:Epoch 3     loss=0.3413 [16.7 s]	dev=(HR@3:0.0906,NDCG@3:0.0659) [0.1 s]
…
